…
6-760b-4c3e-85b5-ebc393170cfd"},"execution_count":24,"outputs":[{"output_type":"stream","name":"stdout","text":["Model: \"FeatureGenerationModel\"\n","_________________________________________________________________\n"," Layer (type)                Output Shape              Param #   \n","=================================================================\n"," FeatureNet_ImageInput (Inp  [(None, 28, 28, 1)]       0         \n"," utLayer)                                                        \n","                                                                 \n"," conv2d (Conv2D)             (None, 26, 26, 8)         80        \n","                                                                 \n"," batch_normalization (Batch  (None, 26, 26, 8)         32        \n"," Normalization)                                                  \n","                                                                 \n"," activation (Activation)     (None, 26, 26, 8)         0         \n","                                                                 \n"," conv2d_1 (Conv2D)           (None, 24, 24, 16)        1168      \n","                                                                 \n"," batch_normalization_1 (Bat  (None, 24, 24, 16)        64        \n"," chNormalization)                                                \n","                                                                 \n"," activation_1 (Activation)   (None, 24, 24, 16)        0         \n","                                                                 \n"," max_pooling2d (MaxPooling2  (None, 12, 12, 16)        0         \n"," D)                                                              \n","                                                                 \n"," conv2d_2 (Conv2D)           (None, 10, 10, 16)        2320      \n","                                                                 \n"," batch_normalization_2 (Bat  (None, 10, 10, 16)        64        \n"," chNormalization)                                                \n","                                                                 \n"," activation_2 (Activation)   (None, 10, 10, 16)        0         \n","                                                                 \n"," conv2d_3 (Conv2D)           (None, 8, 8, 32)          4640      \n","                                                                 \n"," batch_normalization_3 (Bat  (None, 8, 8, 32)          128       \n"," chNormalization)                                                \n","                                                                 \n"," activation_3 (Activation)   (None, 8, 8, 32)          0         \n","                                                                 \n"," max_pooling2d_1 (MaxPoolin  (None, 4, 4, 32)          0         \n"," g2D)                                                            \n","                                                                 \n"," flatten (Flatten)           (None, 512)               0         \n","                                                                 \n"," dense (Dense)               (None, 32)                16416     \n","                                                                 \n"," dropout (Dropout)           (None, 32)                0         \n","                                                                 \n"," batch_normalization_4 (Bat  (None, 32)                128       \n"," chNormalization)                                                \n","                                                                 \n"," activation_4 (Activation)   (None, 32)                0         \n","                                                                 \n","=================================================================\n","Total params: 25040 (97.81 KB)\n","Trainable params: 24832 (97.00 KB)\n","Non-trainable params: 208 (832.00 Byte)\n","_________________________________________________________________\n"]}]},{"cell_type":"code","source":["from keras.layers import
…
           Param #   Connected to                  \n","==================================================================================================\n"," ImageA_Input (InputLayer)   [(None, 28, 28, 1)]          0         []                            \n","                                                                                                  \n"," ImageB_Input (InputLayer)   [(None, 28, 28, 1)]          0         []                            \n","                                                                                                  \n"," FeatureGenerationModel (Fu  (None, 32)                   25040     ['ImageA_Input[0][0]',        \n"," nctional)                                                           'ImageB_Input[0][0]']        \n","                                                                                                  \n"," merge_features (Concatenat  (None, 64)                   0         ['FeatureGenerationModel[0][0]\n"," e)                                                                 ',                            \n","                                                                     'FeatureGenerationModel[1][0]\n","                                                                    ']                            \n","                                                                                                  \n"," dense_1 (Dense)             (None, 16)                   1040      ['merge_features[0][0]']      \n","                                                                                                  \n"," batch_normalization_5 (Bat  (None, 16)                   64        ['dense_1[0][0]']             \n"," chNormalization)                                                                                 \n","                                                                                                  \n"," activation_5 (Activation)   (None, 16)                   0         ['batch_normalization_5[0][0]'\n","                                                                    ]                             \n","                                                                                                  \n"," dense_2 (Dense)             (None, 4)                    68        ['activation_5[0][0]']        \n","                                                                                                  \n"," batch_normalization_6 (Bat  (None, 4)                    16        ['dense_2[0][0]']             \n"," chNormalization)                                                                                 \n","                                                                                                  \n"," activation_6 (Activation)   (None, 4)                    0         ['batch_normalization_6[0][0]'\n","                                                                    ]                             \n","                                                                                                  \n"," dense_3 (Dense)             (None, 1)                    5         ['activation_6[0][0]']        \n","                                                                                                  \n","==================================================================================================\n","Total params: 26233 (102.47 KB)\n","Trainable params: 25985 (101.50 KB)\n","Non-trainable params: 248 (992.00 Byte)\n","______________________________
…
